hw7/1b/BOW.model (torch_old, 381766 bytes, 7 tensors)

weight f4 [300, 300]
00000000: ef79 a33d d096 91bd 521b 983d 4a4b e83c
00000010: 5366 23bc bc5e 99bc 3148 32bd 8a67 56bd
00000020: 1808 54bd f52a 973c f7e9 81bd d988 913d
00000030: ff27 66bd cd92 72bc 47f8 d13c fee9 e53b
00000040: 7e2a 3b3d 38a7 393d fe5e 4ebc 0f5b 61bc
00000050: 1c80 d23c a413 903d 72ce acbc 8680 123d
00000060: 31d5 8d3c e52e d43b 3681 f63c d4cc 39bd
00000070: 823c 29bc 2625 34bc d61a 233d b6f7 5f3d
00000080: a776 0dbd 94b3 833c 3fe6 9abd e928 58bc
00000090: c9d5 093d f2b9 95ba ae55 dc3c ffd4 8d3d
000000a0: c46f d7bc bf6f ffbc b188 93bc f260 d7bc
000000b0: 5d36 0abd aabf 90bd f55b 883c 808d 073c
000000c0: a42f 663d e06b e4bc 52e0 10bd 15d9 1c3d
000000d0: 0cdd 3f3d 951f 0a3d e89c 303c 065c 80bd
000000e0: a22f a4bd d72e 533c aa0d c23d d62d 663d
000000f0: ccd8 8abd c48c 4b3c 0abb 163a 13d5 58bc
00000100: 7c71 1d3d e024 5dbd b859 bebb 29ef 5cbb
00000110: 0667 e43c 0c96 cfbd f861 c8bc 600f 453d
00000120: 1763 86bc 8885 da3c acc2 3abd fb7b a93d
00000130: 273a b0bd ef75 f23c eaeb eb3c 3fed b03b
00000140: 4780 35bd 9196 4bbd 18d5 08bc dbec 0dbc
00000150: d0f2 0dbd f2bd babd 07d9 183d 7963 1a3d
00000160: 89f9 f2bb 97a0 c7bc c8b4 88bd 301e b9bc
00000170: d182 b83c 6479 013d dcc1 a1bc 4cbd a3bd
00000180: 0dcf 923d 5a5a 923b 2c58 99bb 299c 0fbc
00000190: 058b 7fbd 0203 4ebc fc77 18bd 7c88 a63c
000001a0: 8218 47bd fccf a3bc b087 4dbd ae19 bfbb
000001b0: f030 8fbc 2382 82bd 52ff 83bd 9021 5e3c
000001c0: 29c2 38bc 2bb6 043b b27c 16bd 5985 b63b
000001d0: e0d7 433d b3a1 f23b 3530 943c 2a4e 45bd
000001e0: 7f7d 853d 8a27 523d 0aee ed3a dcb1 80bd
000001f0: 79b0 6fbb 6c5b 49bd a304 ab3c b147 5abd
00000200: 5d06 763d fe9a ef3d ff59 c43d 100a 2f3d
00000210: c60d 9b3b df78 5e3d 4d71 a5bb 7aad 0ebd
00000220: 9463 99bc 15a5 1bbd 66e7 dc3d 82d4 53bd
00000230: 75ef 24bc fc03 a8bc 5540 6ebc f5ec be3b
00000240: 48ed 0f3d 3563 02bd 9895 b4bc 4c8a cab8
00000250: fb18 31bd f41e 32bd 47e7 0ebd e8c3 5cbc
00000260: e55e 85bb 73be 433d dabc dbbb a791 adbd
00000270: d811 acbd c6af 0f3d aff5 6bbc 838b e63c
00000280: 0b85 fabc 1220 e6bd 7ddc 053e 5f5f 7fbd
00000290: 8072 2fbd 00e3 54bd 181a d03c 987a b5bd
000002a0: b642 df3d 766e 0c3d f441 c6bd d7a2 afbd
000002b0: 5ace 033d c19d af3c f15d f3bd 60b3 81bc
000002c0: 0db9 03bd a364 113d 9d1f 0f3d f1d0 b23b
000002d0: afc2 dd3c 9c4c c73d 8677 f3bc f755 6b3d
000002e0: 795e b7bd fc00 3bbc 5422 d03b 4a9c 6bbd
000002f0: 8f56 6cbd 84b2 363d cb87 193d 62b8 673d
00000300: 76c3 80bd 631a 1e3d e083 8b3c 76a8 3fbd
00000310: 24d4 55bd f4ac 67bc b72f 97bd 88a5 00bd
00000320: 0746 83bc 3c8e 1e3d adae 29bd f9d3 1b3d
00000330: de6e 603c 2b3d 1f3d af51 e2bc 9392 f5bd
00000340: 6042 ac3d 8031 17bc 6311 513b e6aa ff3c
00000350: bbab 6cbd 2652 dc3c aa78 e03c 16db 00bc
00000360: 815d d8bd 484d 313d 1708 91bd ba86 7bbc
00000370: 6ce7 68bd d2bf 23bd c678 e5bb 5503 ee3c
00000380: ce7c 2dbd e7ce 57bd 42db 57bb a33f 343d
00000390: 4720 32bd 4e32 50bd 2e2d 693d f53c 883d
000003a0: 2319 d53c 6e34 543b e3b4 aabb ac2e 343c
000003b0: 1611 533d 0cac 3b3d 30de ffbc 065c 8dbc
000003c0: 94c5 553d 84a6 8f3d 3fb9 433b 0a27 d8bc
000003d0: db64 80bd 16bd 57bd f03f 833d 5a77 e83c
000003e0: c6d6 bfbc e6d6 8a3d 0fe1 06bd 7450 a23c
000003f0: 89a0 af3d 54d6 05bd f5d7 9a3d 8868 863d
0.07982241 -0.07108843 0.07427086 0.028356213 -0.009973126 -0.01872193 -0.04352588 -0.052344836
-0.05176553 0.0184531 -0.063434534 0.0710618 -0.056190487 -0.014805508 0.025631083 0.0070164194
0.04569482 0.045325488 -0.01259589 -0.01375462 0.025695853 0.07034996 -0.021094535 0.0357671
0.017313572 0.006475317 0.03009091 -0.045361355 -0.010329368 -0.010995185 0.039820515 0.054679595
-0.034536984 0.01607684 -0.07563447 -0.0131933475 0.033651147 -0.0011423214 0.026896324 0.069253914
-0.026298411 -0.031181214 -0.018009515 -0.026291344 -0.03374325 -0.07067807 0.016645411 0.008273482
0.056197777 -0.02788347 -0.03537018 0.038292963 0.046841666 0.033721525 0.010779597 -0.06267552
-0.08016898 0.012889585 0.094752625 0.056196056 -0.06779632 0.012423698 0.0005749917 -0.013234395
0.038438305 -0.053990245 -0.005809035 -0.0033711886 0.027881157 -0.10136041 -0.024460778 0.048110366
-0.016404672 0.026675 -0.04559581 0.082756005 -0.08604842 0.02959725 0.028799016 0.0053993757
-0.044311788 -0.04970414 -0.008351587 -0.008662428 -0.034655392 -0.091182604 0.03731635 0.03769252
-0.007415001 -0.024368567 -0.06675106 -0.022597402 0.022523316 0.031609908 -0.01974576 -0.0799509
0.07168398 0.004466337 -0.0046797004 -0.008765259 -0.06238844 -0.012573959 -0.0372238 0.020328753
-0.048607357 -0.019996636 -0.05017823 -0.0058319187 -0.01747939 -0.06372478 -0.06445183 0.013557807
-0.01127676 0.0020250182 -0.036740012 0.0055700955 0.047813296 0.00740453 0.018089393 -0.048170246
0.06518077 0.05130724 0.0018152606 -0.06283924 -0.0036573692 -0.049159452 0.020876234 -0.053291027
0.060064662 0.11699484 0.09587478 0.042734206 0.0047318665 0.05431449 -0.005048907 -0.03483341
-0.01872424 -0.03799923 0.10786323 -0.051716335 -0.010066857 -0.020509712 -0.014541705 0.0058265873
0.0351384 -0.031832892 -0.022043988 -9.6578704e-05 -0.043236714 -0.04348655 -0.034888532 -0.013474442
-0.00407015 0.04778905 -0.0067058625 -0.084750466 -0.08401841 0.03507974 -0.014401837 0.028142696
-0.030581018 -0.11236586 0.13072391 -0.062346812 -0.042833805 -0.051974297 0.025403067 -0.088612735
0.10901396 0.03428503 -0.09680548 -0.08575981 0.032179214 0.021437528 -0.11883152 -0.015832603
-0.0321589 0.035496365 0.03494226 0.0054570367 0.027070371 0.09731409 -0.02972008 0.05745503
-0.08953566 -0.011413809 0.0063517485 -0.057522096 -0.057699736 0.04460384 0.037483018 0.056572326
-0.06287281 0.038599383 0.017030656 -0.046791516 -0.052204266 -0.014140356 -0.07382148 -0.031407863
-0.016024603 0.038709864 -0.04142635 0.03804395 0.013698308 0.038876694 -0.02762684 -0.119908474
0.084110975 -0.00922811 0.0031901232 0.03120942 -0.057780962 0.02689464 0.027401287 -0.007864734
-0.105647095 0.04328659 -0.07081621 -0.015351946 -0.056861326 -0.039977856 -0.0070029227 0.029054323
-0.04235535 -0.05268755 -0.0032937084 0.044006 -0.043487813 -0.050829224 0.056927852 0.06652252
0.026012963 0.0032379883 -0.0052095517 0.010997456 0.051529966 0.045818374 -0.031233877 -0.017255794
0.05219038 0.07014182 0.0029865054 -0.026385803 -0.06269237 -0.05267056 0.064086795 0.028377224
-0.023417842 0.0677927 -0.032929476 0.019813754 0.085755415 -0.032675102 0.07560722 0.065629065

bias f4 [300]
00000000: 9519 393d 7538 29bb ae14 753d 2519 be3b
00000010: 4b44 8c3c 5b8d 9abd 8bca d6bc f6d0 4ebd
00000020: aac6 4bbd d8bc 343d ccab 153d 8330 48bd
00000030: cd83 4f3d 9de5 573c afed e7bc 333b 0e3d
00000040: 5ec1 0fbd 137a d63c f97e b93c f843 29bd
00000050: 872f 843d 2aa3 24bd 3a9a 31bd 258c 7cbd
00000060: 3d53 d3bc 8c28 613d 1f4f 4fbd 1b45 17bd
00000070: 37e8 41bd ef2f eb3c b6b1 673d b7c2 16bd
00000080: 16a3 adbc c796 5b3d dedf b9bb 3a2d 873d
00000090: 3276 97bd 0a51 ee3c d2e4 fd3a 4770 d43c
000000a0: b936 2cbc 2c9f 943d db43 453d 8eb5 81bc
000000b0: dc14 023d 0631 153c a178 9d3c 1afc 973d
000000c0: 2b42 2d3d 41bb bebc 958e 4b3d 347a 2337
000000d0: 6812 963c c789 123d 7c79 26bd e857 0f3c
000000e0: 8acd 13bc e9a0 ba3b debe 84bd 1eb2 a8bc
000000f0: d01b 07bd d150 a2bd 9c6f 45bd ec5d 07bd
00000100: bb38 fcbb 677c 2a3d 076d 04bd e4d7 103d
00000110: cf37 9e3c 5e74 f5bc 3b46 7c3c c709 de3c
00000120: 4dee ba3b ec07 703d a211 0f3d 8a38 093d
00000130: 2c42 25bd dc60 53bd 71f6 82bd 6e46 e0bc
00000140: 086b 58bd 8254 38bd edff 86bc b3f7 6dbc
00000150: 242a 1fbd 2f3c 65bb c5d5 a73c 0dd9 023d
00000160: da69 1bbd 35d5 0ebd 1712 593d b4cc 153c
00000170: ff5d 4f3d 9d0d 0fbd a8d8 c6bc 9135 8dbb
00000180: 64fd 37bd 32de 2b3d 9264 30bd 0396 46bb
00000190: 94cb 91bd 2147 923d 589a d73c 165d 10bc
000001a0: 43ca a13c df48 0bbd 5690 8dbc 0a42 eb3b
000001b0: 4134 5a3d 3e1c 163d 5266 903b 3831 45bc
000001c0: f6e9 d2bc 655d 61bc bcb7 7b3b d04d 473d
000001d0: eb62 f2bc b0fb b83c 1ea6 10bd 2650 45bd
000001e0: 96f8 a73c 69d1 4cbd 5a9b c43c f813 2e3d
000001f0: 1e13 9bbd 622a e63c 3403 58bd 7678 e6bc
00000200: 92f7 803d 4133 e2bc 32af 433d 94cf 183c
00000210: c629 603d d302 a1ba f148 3fbd 5497 473d
00000220: 532d 80bc 8575 ebbc d5c9 1dbd 63a8 f43c
00000230: 33e4 673d 6c55 27bc eb8d 4a3d c076 4dbd
00000240: f0d3 9cbc 7a26 f7bc f266 6c3d 33aa 17bc
00000250: 1dea 89bc f80f b5bc 08b3 053d 7e47 c4bc
00000260: 1b98 b0bb 36c2 023d 93ce bebc b2d6 a9bc
00000270: a597 aabb a111 cbbc 48ee 1f3d 26ce 35bd
00000280: 6f43 143d 16e5 b13c da5d 743c ee86 97bc
00000290: 65fb 0abd 0d3f c6bc c8d0 233d 4af8 073d
000002a0: 304a 0bbc c793 01bc ac01 0f3d 7f91 be3c
000002b0: 06ba 54bd aeb9 a9bc 3ff0 383d f110 773c
000002c0: a5f3 90ba 1853 febb e1e1 12bc 941d ba3a
000002d0: de59 4e3d 7b1c c0bc cbf5 953c 3c35 32bd
000002e0: b000 f7bc d31d 253d 6b77 72bd 5b75 f9bc
000002f0: dca2 0d3d c888 39bd 3507 62bd c9a4 21bd
00000300: 7260 19bd eea5 01bd e188 583d 19a0 4d3d
00000310: 2f57 87bb 7aa8 48bd 61c4 4d3c 457a 103d
00000320: 5b22 7abc 64b2 053d 03e5 723b 71d0 69bd
00000330: 0100 c23c dfe9 443d d96a 24bd 2e4b a0bc
00000340: a327 96ba b785 053d 6e30 fe3c a373 e2bc
00000350: 86de 3ebd 0962 52bd 9ad8 d43b 668e cebc
00000360: 7614 de3b d947 a0bd eb2f 93bd a948 2d3d
00000370: 70df 0abd 2958 dbbc aebf 1e3d 5dff 323c
00000380: 8be8 85bd a46a 9d3c 15a4 e03b ccc0 40bd
00000390: dae3 a9bc 58ff 40bd 5beb a3bc 363f 933c
000003a0: 3aaa 60bd 64e7 05bd f2bb 28bd 0bbd 9bbc
000003b0: 9658 a4bc 1808 6a3c 769c f83c 612d d83c
000003c0: 8930 a73c 0a0a 793c 0de7 723d 3b15 aebc
000003d0: 317a 843d f3e3 f7bb 169e 68bd ca88 69bd
000003e0: 90b6 29bb e698 22bd 30f4 c13b 1637 64bc
000003f0: da81 07bd 390b 0d3c 6088 09bc f33d 1a3d
0.045190413 -0.0025821005 0.059834175 0.0058013373 0.017122408 -0.07546493 -0.026219627 -0.05049225
-0.049750008 0.044125408 0.03654079 -0.04887439 0.050662804 0.013177303 -0.028311579 0.034724426
-0.03509652 0.026181256 0.022643553 -0.041324586 0.064543776 -0.040194668 -0.043359973 -0.06165709
-0.025796527 0.05497031 -0.050612565 -0.03693114 -0.047340598 0.02870938 0.056565963 -0.03680679
-0.02119593 0.05361059 -0.005672439 0.06600423 -0.07395591 0.029091377 0.0019370562 0.025932444
-0.010511094 0.07256922 0.048160415 -0.015833642 0.031758174 0.009105926 0.01922256 0.074211314
0.04229943 -0.023282649 0.049696524 9.74401e-06 0.018319324 0.035775926 -0.0406432 0.008748986
-0.009021172 0.0056954515 -0.064817175 -0.020592745 -0.03298551 -0.07925571 -0.048202142 -0.033048555
-0.0076971925 0.041622546 -0.03233054 0.03536214 0.019313721 -0.029962715 0.015397604 0.027104272
0.005704677 0.058601305 0.034928925 0.033501185 -0.04034631 -0.051606044 -0.06394661 -0.027377333
-0.052836448 -0.045002468 -0.016479457 -0.014524388 -0.038858548 -0.00349785 0.020487675 0.031945277
-0.037942745 -0.0348713 0.052995767 0.009143043 0.05062675 -0.034925092 -0.024273232 -0.004309364
-0.044919387 0.04195995 -0.04306466 -0.0030301816 -0.071189076 0.07142473 0.026318714 -0.008811256
0.019749766 -0.034005042 -0.017280739 0.0071795033 0.05327249 0.036648028 0.004406729 -0.01203566
-0.025746327 -0.013755177 0.0038409075 0.048658192 -0.029588183 0.022580951 -0.03531467 -0.04817214
0.020504277 -0.050004397 0.023999859 0.042499512 -0.07572006 0.028096382 -0.05273743 -0.028133612
0.0629722 -0.02761233 0.0477745 0.009326834 0.05472734 -0.0012284167 -0.04670042 0.048728302
-0.015646612 -0.028742561 -0.03852256 0.02986545 0.056614112 -0.010213237 0.04945175 -0.050162077
-0.019144028 -0.030169714 0.057715364 -0.009256887 -0.016835267 -0.022102341 0.03264144 -0.023959871
-0.005389226 0.031923495 -0.023291862 -0.020732258 -0.0052060657 -0.02478868 0.039045602 -0.04438605
0.036197122 0.021715682 0.014914954 -0.018496957 -0.033931155 -0.024199987 0.03999403 0.03319577
-0.008501574 -0.007908768 0.034913704 0.023262737 -0.05193522 -0.020718422 0.04515099 0.015079723
-0.001105894 -0.0077613704 -0.008964987 0.0014199489 0.050378673 -0.02345108 0.01830568 -0.0435078
-0.030151695 0.040311646 -0.059195917 -0.030451467 0.034579143 -0.04529646 -0.055182654 -0.039463792
-0.037445493 -0.031652384 0.052864913 0.05020151 -0.004130266 -0.048988797 0.012559027 0.035272855
-0.01526698 0.03264083 0.003706277 -0.05708355 0.023681642 0.0480746 -0.04014096 -0.019567098
-0.0011455904 0.032598224 0.031028952 -0.02764303 -0.046598934 -0.051363025 0.0064955475 -0.025214385
0.0067773415 -0.07826204 -0.07186874 0.042305622 -0.033904493 -0.026775436 0.03875702 0.010925141
-0.06538495 0.01921589 0.0068554976 -0.047058865 -0.02073853 -0.047118515 -0.020009687 0.017974477
-0.05484984 -0.032691374 -0.041194864 -0.019011041 -0.020061772 0.014284156 0.030348044 0.026388826
0.020408886 0.015200147 0.05930238 -0.021250358 0.06468619 -0.0075650155 -0.056791387 -0.057015218
-0.002589617 -0.039696597 0.005919002 -0.013929149 -0.03308282 0.008608633 -0.008394331 0.037656736

weight f4 [300]
00000000: b265 593f 040a 873e 899b 493f d086 0c3f
00000010: bee2 d83e 19f9 033f 70f3 313f 1978 1a3f
00000020: 4e75 903e e094 843f cb77 783e 098e 763f
00000030: 21b7 f43e be77 b13e bb11 1a3f f25b 593f
00000040: 1069 793e 3b68 7e3f 7313 0d3f 92ea 423f
00000050: a908 7c3f 379c 4b3e ef9d 2c3f 4f3e 7c3f
00000060: 3944 643f e19c 503f 430b 4c3e 6737 6d3f
00000070: 5f8f d73e 8884 e73e 80c9 083f bb79 6e3f
00000080: e816 e93e df89 123f 7719 063e 5bb2 413f
00000090: bcad 763e 9a8b 3f3f 01d7 383f f62b 683e
000000a0: c79a d73e 5ae6 823f 1910 3c3e 649e e73d
000000b0: 10ed de3e bb1b 223f 1827 5b3f d0df 243f
000000c0: 59f0 413e f500 803f 56ca 4d3e ad3f 023f
000000d0: bbf6 563f ff23 ae3e f191 883e d6f4 f53e
000000e0: 92d8 163f 0aa8 233f b673 5d3f 4536 e53e
000000f0: b4c7 013f 58c5 cb3e c343 ea3d 040a c03e
00000100: 0b4f ed3e e301 e23e a907 e93d a38c 563f
00000110: f38c bf3e 9ff5 703f e670 673f c81b 7c3f
00000120: 2dea 5f3f 9d36 6d3f 372b 353f 1af1 653f
00000130: f7d4 553e 6d6e c73e 300f b13e 7b42 673f
00000140: e338 c23e e331 293f 7f0c 033e 9173 353f
00000150: 86a3 843f ca92 443f 71f7 693e 8082 853e
00000160: 60ce 1d3f 6fc1 623f 305b 053e 8b11 813f
00000170: ba42 253e 655d 033f a73d da3e 5c98 4f3f
00000180: f5b9 193f 4013 0b3f 679d 4a3f 7a1d a53e
00000190: ad00 843f 20b0 7e3f 6fc4 153f e0fa e23d
000001a0: f6f8 483f adcc ca3e 547f b53d 8038 013f
000001b0: e992 083f 550f c63e 459b 5f3f ab20 ba3e
000001c0: 7b68 1d3f 82d6 0a3f faf7 1c3f 7853 1b3e
000001d0: 6afc ea3e 768f 433f f51b 233f d2ff b63e
000001e0: ca27 593f 6034 e33d d593 823f c6a3 f03e
000001f0: 4bec 1b3f 88b2 733f 4003 fb3e 58f5 613e
00000200: faf8 1a3f e239 323f 4af4 4c3f 5200 383f
00000210: 418a 0a3f 8867 263e 3513 973e 525f 5c3e
00000220: 0c2f 3a3f 5aad c63e 35d7 cc3e 3979 413f
00000230: c7ca d83e c2e0 923e 8d17 503f 0c91 443f
00000240: 7918 bb3e 0320 e13e 3a67 533f 261b 373f
00000250: def8 fe3e eaab 1f3e ce1b 753f 92a0 873e
00000260: 532b 773f 2635 6e3f d54d 403e c857 3b3e
00000270: cdf1 473e ff6c 17bb 9284 7b3e 347d c73e
00000280: 2882 193f 630d 283f 8523 b83e 7555 1c3f
00000290: 2ae5 473f 92b0 903e e21a 2f3f 30ff 0c3f
000002a0: 8d60 6f3f 0ac1 6a3f 7ff1 3c3f b705 383f
000002b0: afa0 eb3e e21f c63e 0c4c eb3e 857c f33e
000002c0: 1945 843e cba6 533f 2c88 3c3e d6f1 ce3e
000002d0: de5a 3a3f f331 4d3f 96b6 833f 29fb 603f
000002e0: 91d2 013f e85b 3c3f 04eb de3e 41b6 943e
000002f0: e923 203f 9074 1e3f faed f33e 8381 633f
00000300: 8c1e 423f 658f 603f 333a 213f 943f 203f
00000310: be22 373f 2447 b03e 7c77 393f 3f79 233f
00000320: 70a2 4b3f 71b9 a83e 59c9 3c3e 8a24 043e
00000330: a29a 7f3e 4acd 703e 0fbd 983e fe9d 1a3f
00000340: 619e 2d3e 1a79 7c3e 5e77 593f 8fab 063f
00000350: b143 843e 179b 163f 39d9 723f f4b4 c13e
00000360: 119e 373f 3dba 223f 2b88 783f c7fe 7d3f
00000370: 9edc c93e 871a c43e 5ee8 773f 61d4 4d3e
00000380: c2a9 fa3e 0cd5 ee3d f225 b83e 8cab 543f
00000390: 69da 763f 77b8 a13e 08c4 283f 8339 1a3e
000003a0: 0e26 353f 1bea 793e 3206 753f 528b 943e
000003b0: 1d61 d73e df55 213e d6ac 293f cddc 393f
000003c0: 541f 0e3f 1756 7d3f 5339 523f 0fca df3e
000003d0: cb96 403f 24f8 a13e 3c5b b83e 3e81 8d3e
000003e0: f624 a43e 7eb2 133f 3104 ee3e e333 ff3e
000003f0: 50f8 823f b834 613f 2901 ff3e 4c14 533f
0.849208 0.2637483 0.7875295 0.5489321 0.4236049 0.5155197 0.6951208 0.60339504
0.28214496 1.0357933 0.24264447 0.9631048 0.47795966 0.3466167 0.60183305 0.8490592
0.24356484 0.99377793 0.551078 0.76139176 0.98450714 0.1988381 0.6742849 0.98532575
0.891666 0.8148938 0.19926171 0.9266266 0.4210157 0.452183 0.53432465 0.93154496
0.4552529 0.57241625 0.13095652 0.75662774 0.24089712 0.7482239 0.7220307 0.2267302
0.42110273 1.0226548 0.18365516 0.113095075 0.4354024 0.63323563 0.8560653 0.6440401
0.18939342 1.0000292 0.20096716 0.5087841 0.8397023 0.34011838 0.26673844 0.48038357
0.5892421 0.6392828 0.86504686 0.44767967 0.5069535 0.39799 0.11438706 0.3750764
0.46349367 0.44142064 0.11378414 0.83808345 0.37412223 0.9412479 0.90406644 0.9847989
0.874667 0.9266146 0.70769066 0.89821017 0.20882021 0.38951436 0.345819 0.90335816
0.37934026 0.66091746 0.12797736 0.70879465 1.0362403 0.7678648 0.22848298 0.26076126
0.6164303 0.88576406 0.13023067 1.0083479 0.16138735 0.51314384 0.42625162 0.81091857
0.6004937 0.5432625 0.79146427 0.3224905 1.0312706 0.99487495 0.5850286 0.11083007
0.78504884 0.3960928 0.088621765 0.5047684 0.5334917 0.38683572 0.873463 0.3635305
0.6148755 0.5423356 0.6131588 0.1516856 0.45895702 0.7639078 0.63714534 0.3574205
0.8482634 0.11093974 1.0201365 0.4699995 0.6090743 0.9519429 0.49025917 0.22066247
0.6053616 0.6961957 0.80060256 0.7187549 0.5411721 0.16250432 0.2950684 0.21520737
0.7272804 0.38804132 0.4000794 0.75575596 0.42342207 0.28687102 0.81285936 0.76783824
0.3654211 0.43969736 0.82579386 0.715258 0.49799246 0.15592924 0.9574555 0.26489693
0.9655048 0.9304985 0.1877969 0.18295205 0.19525833 -0.0023105738 0.2456229 0.3896271
0.5996423 0.65645427 0.359646 0.610679 0.7808405 0.28259712 0.68400395 0.55076885
0.935067 0.91700804 0.73805994 0.7188372 0.4602103 0.386962 0.45956457 0.47555938
0.25833967 0.8267638 0.1841132 0.4041888 0.727949 0.8015434 1.0290096 0.8788324
0.50711924 0.7357774 0.43538678 0.290453 0.62554795 0.6189661 0.476425 0.88869494
0.7582786 0.877188 0.6297943 0.6259701 0.7153739 0.34429276 0.72447944 0.6385688
0.79544735 0.3295398 0.18436183 0.12904564 0.24961331 0.23515812 0.2983174 0.60397327
0.16954948 0.24655572 0.84947765 0.5260553 0.25832894 0.588304 0.94862705 0.3783337
0.71725565 0.6356543 0.97082776 0.99216884 0.3942613 0.3830149 0.9683894 0.20100547
0.4895764 0.11661729 0.3596645 0.8307426 0.9642702 0.31586048 0.6592412 0.15061001
0.7076119 0.2440571 0.9571258 0.29012543 0.4206628 0.15755413 0.6627935 0.7260254
0.5551655 0.9895949 0.8211872 0.43708846 0.7523009 0.3163463 0.36007106 0.27637666
0.3205945 0.5769423 0.46487573 0.49844274 1.0232029 0.8797107 0.49805573 0.82452846

bias f4 [300]
00000000: 2e20 a63d 4558 383d d4f1 253d fc81 c13c
00000010: 4aed 883c d003 c63c add5 8dbb f367 373d
00000020: 925a 813d ab9c b8bc 566f cfbc 75a5 f53b
00000030: a15d fd3c 90d9 033d a86a 0e3d ac9e 4abd
00000040: 6d42 c43c 7501 c1bc 9cad cb3c 247c a7bb
00000050: 539c 183d 3602 ad3c 5e86 42bc 2f5b 543d
00000060: 570a cfbc 0c9d 61bc 4d2c 5e3d 4ba3 30bd
00000070: df47 c33c 20e7 f8bc 63b8 2b3b d2b5 313d
00000080: 6443 103d 7296 263c b282 9e3c e708 823c
00000090: aaec 633d 3533 9aba 542e 7abc 674d 883d
000000a0: 55ee 29bc 30d6 da3c da85 53bc d664 b83b
000000b0: 6a4b c63c fd67 4e3c b527 2dbd 397d 8c3d
000000c0: 281e 7c3d 1f7a d2bc 5551 a73d bd90 1bbd
000000d0: 2ffa 37bd ee96 d6bc 36e3 2a3d b376 a33d
000000e0: b0a0 d13c 872d 34bc b600 06bc 1d80 2bba
000000f0: dd52 0e3c 9764 963d 5e9d 033d 1a47 943c
00000100: ebf8 fd3b e40e f33c 5890 1e3d 912a 493d
00000110: 1392 323c 6de6 413d 60b7 983c 7f97 183d
00000120: 21f7 353d baf9 143d a9f2 963a b108 423d
00000130: 0384 e13c e3ed b03c 874f 703d 4899 62ba
00000140: fcae 073d 3f95 2f3d 51ea 533c a1f3 3b3d
00000150: ab97 073c 5ac4 813d 5968 1a3c 2898 a93d
00000160: 8732 c43c a440 373c 7c3e ee3c 5ece e63c
00000170: 8cab 9f3d 8049 aa38 dd4c f63c 495d a23c
00000180: 723c 193b 76a9 af3b d168 f63c 4232 693d
00000190: 810e 573b 576a 8c3c e7ec 6d3d d4e2 6d3c
000001a0: de99 4c3d aff2 bdbc 56b2 763d 52e5 2c3c
000001b0: 99ea 30bd 2ffa 44bd 8459 b439 6086 513d
000001c0: a2d0 473c d94a e73c 7b77 223d bb3b d43c
000001d0: fae6 9f3d 94a5 87bc acf4 723c 0534 433d
000001e0: 0ea3 bd3c 5100 c3bb 5197 c2bc 04c6 963d
000001f0: aa8b 6a3b 4823 8a3d 33dd 7b3d 6ebd 1c3d
00000200: 4999 fd3c e8ab bc3b 3e44 943c 2818 1b3d
00000210: 46d9 263d 0fda 9a3d 45e9 563d 7bef 6bbc
00000220: 5ff9 683d e8b8 9abb a8d9 e43c 9269 213c
00000230: 9c96 563d c77f ca3c dbb5 a63d 5cb9 ffbc
00000240: 4d56 c43c e083 083d be2b 203d bfe7 41bd
00000250: 485d 723d 657c 8b3d da4d 503d ec78 2d3c
00000260: 8f8d 293d f247 e23b eae6 7abc aff4 943c
00000270: 603d 963c 46d5 22bc 20e6 2c3d 1a1a b63d
00000280: 5d7a bebc d7f9 b7bc 1341 1ebd d003 b1bb
00000290: 5030 7d3d 7fca 2d3d 138c 6d3c 3aee ca3b
000002a0: ae8b 8e3c 4110 c03c d7dd 17bd 969a e73c
000002b0: 51b4 9d3c 2abe d23d 8d97 91bc 665d 113d
000002c0: d83b dc3c c4cf 0d3d f0aa 773d 18e7 923c
000002d0: 4d10 293d 3973 ab3b 796d ce3c 23bb 51bd
000002e0: c26f 0dbd bdc4 e73c 328d 703d 4b45 953d
000002f0: b9c2 e3b9 934e d3bc 975e aa3d 1015 453d
00000300: d2d9 d63c 7736 f4b9 f5bb 1c3d d104 5b3d
00000310: 638d 683d 305b 533d de71 a9bc d57c a8bb
00000320: 0670 443d 218e f13c e6cd fb3c b4e2 913c
00000330: 2fa0 5d3c dec1 053d 0190 b53c d55c ba3d
00000340: 5e4e dd3d 7d79 813d 4dc4 653d dec8 293c
00000350: bad2 653d cf61 893b 8777 823d decb 353c
00000360: d38d 0e3d 4f90 0e3d 3178 cbbc c796 053d
00000370: d3e4 e83c 8ca1 943d 3355 a43c 1115 4e3d
00000380: c92e 183b 6d87 a83c 05aa a53d a086 e73c
00000390: d916 503a 2fcd 773d da2d b63d 43ca bb3c
000003a0: 5328 743d da8d a13d eac5 f53c 5323 9d3d
000003b0: e6e2 b93c 3859 4e3d 00d8 2d3d 5d72 f13c
000003c0: 2d6e 303d 2fa4 5f3c 1fa0 913d 18db cb3c
000003d0: cdb9 9cbd 0206 373c 0b9b 67bc 2f85 b5bc
000003e0: 1da6 3f3d c121 483d 9af2 f83b 42a0 8a3c
000003f0: fdb2 d83c 92f8 fa3c b98a d13b 5c71 be3a
0.081116065 0.045006055 0.04051383 0.023621552 0.01671471 0.02417174 -0.0043284507 0.044776868
0.06316103 -0.022535643 -0.025321644 0.0074965307 0.030928435 0.032189906 0.034769684 -0.049467728
0.023957456 -0.023560265 0.024863057 -0.0051112343 0.037258457 0.021119218 -0.011872856 0.051844772
-0.025273485 -0.013770353 0.054241467 -0.04312448 0.023837982 -0.030383646 0.0026202432 0.043386288
0.03522052 0.010167705 0.01934943 0.015873386 0.055645622 -0.0011764528 -0.015269835 0.06655388
-0.010371764 0.02671346 -0.012910331 0.005627255 0.024205882 0.012598035 -0.042274196 0.06859822
0.061552197 -0.025692998 0.0816981 -0.03797983 -0.044916328 -0.026195016 0.04172059 0.079816245
0.025589317 -0.010997183 -0.00817888 -0.00065422227 0.008686748 0.07343405 0.0321325 0.01810031
0.0077506206 0.029670186 0.038711876 0.04911286 0.010899085 0.04733889 0.018642128 0.037253853
0.044425134 0.03637097 0.001151641 0.04737157 0.027528768 0.021597808 0.058669593 -0.00086440565
0.033125862 0.04286694 0.012934283 0.04588664 0.008275907 0.06336279 0.0094242925 0.082809746
0.023949875 0.011184845 0.02908253 0.028174575 0.07796392 8.119922e-05 0.030065948 0.019819872
0.0023381975 0.0053607775 0.030079277 0.056932695 0.0032815041 0.01714055 0.058087256 0.014519412
0.049951427 -0.02318701 0.06022867 0.010552721 -0.04319248 -0.048090156 0.0003439897 0.05115354
0.012195738 0.028233932 0.039664727 0.025907388 0.07807727 -0.016558446 0.014828842 0.04765703
0.02314904 -0.0059509655 -0.023753794 0.07361987 0.0035788813 0.067450106 0.06149025 0.03826659
0.030956881 0.0057577975 0.018098947 0.037864834 0.04073455 0.075611226 0.052468557 -0.014400358
0.056878444 -0.0047217496 0.027935818 0.00985183 0.052389726 0.024719132 0.08140155 -0.031216316
0.023966933 0.03332889 0.039104216 -0.04734015 0.05917099 0.06810836 0.050855495 0.010587912
0.041394766 0.006905549 -0.015313843 0.01818308 0.018339813 -0.009938544 0.04221165 0.08891697
-0.023251707 -0.022458 -0.03863628 -0.005402066 0.061813653 0.042429443 0.014498728 0.0061929496
0.017400589 0.02344525 -0.037076797 0.028271955 0.01925102 0.10290177 -0.01777246 0.035489462
0.026884004 0.03462197 0.060465753 0.01793246 0.04127531 0.0052322415 0.025198685 -0.051203858
-0.03453041 0.028292054 0.058728404 0.07288607 -0.00043441894 -0.025794303 0.08318823 0.04811579
0.026226912 -0.00046579886 0.038265187 0.05347139 0.056775462 0.051600635 -0.020684179 -0.0051418343
0.047958396 0.029486718 0.030737828 0.017808296 0.01352696 0.03265559 0.022163393 0.090997376
0.10805963 0.06322 0.05609541 0.010362832 0.056109168 0.004192568 0.06370454 0.011095969
0.034803223 0.034805592 -0.024837585 0.032614496 0.028429424 0.07257375 0.020060157 0.05031306
0.0023221246 0.020572389 0.08089069 0.028262436 0.0007937975 0.060498413 0.08895464 0.022923594
0.05960877 0.07888384 0.0300016 0.07672753 0.022691201 0.050378054 0.04244232 0.029473478
0.04307382 0.013649984 0.07110619 0.024884745 -0.07652626 0.011170866 -0.014136086 -0.022158233
0.046789277 0.048860315 0.0075972797 0.01692212 0.026452536 0.030636106 0.006394711 0.0014529633

running_mean f4 [300]
00000000: 88ef 5a3e e812 83bd e33a e8bb 63e8 133e
00000010: a8c3 c1bd 4866 22be 8003 5abd 1f86 a63b
00000020: 351f ff3c 728e 103e 0ce8 4c3e 87a5 a8bd
00000030: 141b 843d 06a3 923e a20a 81bc 67b6 063e
00000040: adff 37bb 6852 89bc 8179 e93c fb5d c23d
00000050: 650e c1bc 1bf4 bd3c dd5c 34bd ecf3 b53c
00000060: 562a 493d 5197 843e 96b9 15be fbaf 2abc
00000070: 6c31 ddba 471f 813d 81d2 a2bd 9f31 aa3d
00000080: f367 52bc 95cc 753e 11b5 193c aeac ce3c
00000090: f7a1 b1bc 8328 1dbc 6bdc eb3d 414d 613d
000000a0: 9a19 5cbe da21 403e 0e48 3a3d 6bb7 a8bd
000000b0: d080 633e 6a91 773e ce00 eabc 5432 6b3e
000000c0: 6331 3dbd f148 3fbc 6252 5d3e 19a5 83bd
000000d0: 1fb9 8bbd a917 193e cf23 763c 881d 35bd
000000e0: 9e18 3a3d 9e02 f13d 50bd 8abd ad25 3e3e
000000f0: 22e6 2cbe 1430 66be ef7f 27be 6bde e23d
00000100: 5fc3 64bd 0722 1bbe 16d4 adbd be53 1e3e
00000110: a459 b9bb 7fb4 663d c32e 42bd 6aec e73d
00000120: d2e7 3c3d a35f 003e e3bb 923e 6ba0 053d
00000130: e4d7 02be 38db c1bc 378f 283d 0a34 28bd
00000140: e709 8bbd 5afe df3d acc7 123d b192 053e
00000150: c87c 4abd e85a 113e 5cbd b0bd 333c 7bbc
00000160: 72e9 a5bd f89f 103c e5aa 81bd 66f9 a63d
00000170: cd22 553d 601f e33d 4bd4 523e 22d5 193d
00000180: 27d1 29bd 62b4 fd3d d4ba 533d 20b4 4dbb
00000190: ee68 bd3d 7077 0ebe 91bb 523d 2d6c 2f3d
000001a0: 4c14 153d 7b76 523d 608f 47bd 5523 a23d
000001b0: fc56 1d3e ca94 d7bd 6675 1d3e 10ce a7bd
000001c0: c241 b63d cac5 023e 72d5 863e a54a a6bc
000001d0: 1c30 ddbd b5c4 353e 91a1 abbd 90af dd3b
000001e0: edae af3d a4dc 9cbe e548 f73d d15f 743e
000001f0: f55b 25be eed2 e93c e89c 663b 86e1 b03d
00000200: 2503 713e 3677 6cbd 9bd8 e73d 21d7 c43c
00000210: 697f f23e b196 c13b d8bc 643d ba87 d83d
00000220: e49d 93bd e52e 4cbd e324 4e3d a452 173e
00000230: ed64 07bc 6a8f b7bd d3ab 05bd f750 463d
00000240: 8c20 323e 2aa7 6d3e 5964 8e3e 62cd dc3c
00000250: ce03 43bd 1f95 97bd 0d5a 243e 7935 afbc
00000260: 9340 813d cd17 103d 4fb2 b73d d105 113e
00000270: f39b 233e f722 7bbd f244 debd 68f2 193d
00000280: cba4 253e f1bc c2bd a802 583d 3a6f 48bd
00000290: 3127 3ebe f922 e8bc c858 45bd ebc8 45bc
000002a0: 960d 993c b08f a4bd f46e ba3d 1577 9ebd
000002b0: f7fa 6f3e ba48 6ebd df24 01be a480 56bd
000002c0: 1d37 023e 5234 34bc eb2e 4c3e 5343 a63c
000002d0: 0b91 653e 8015 a9ba 8cef 94bd ce04 24be
000002e0: 8d64 56be 0259 6a3e afe9 123d 9d1e f03d
000002f0: 8ae0 c7bb 23ee 2abd d9f4 433e 2d3b 83bd
00000300: bc36 35bd c833 9dbd 3356 d9bc 3fce c9bc
00000310: e401 013e 2832 17be d92f 583e 2d82 9a3d
00000320: ee57 d6bd a59a 803d ac20 2cbe 2987 a7bd
00000330: 2438 debc d132 043d a715 fabc 8aa6 803d
00000340: a409 803d 05a0 213d 914b b43d 5ee8 e6bc
00000350: 3a00 333d e9b8 ffbd 7bbd 6b3e d1e3 14be
00000360: d147 863a 3f5d 2a3e db51 1fbe 6ed5 263d
00000370: 4d98 32be 2684 0b3d c3e2 dd3d c89a d43d
00000380: a4b2 c4bd 5b9b da3d cb81 97bc 1d10 66bd
00000390: 4497 22be f974 153e bf66 adbd 93ff 463d
000003a0: 42c1 863e 1992 babd 98d3 77bd 66e8 8d3d
000003b0: 92a4 30bd 4b2d de3c 1d07 a43d bda4 0c3d
000003c0: c9aa 5fbc 2272 3a3e 277d 9a3d d1fe fc3b
000003d0: 3b18 ee3d 7c79 f63c 7f2a 9fbd 51ce d6bd
000003e0: b839 1bbe af2c cfbc 47ce c4bd 5a33 8c3d
000003f0: be62 a03c a5a3 033e 17d7 83bd 7328 033e
0.21380436 -0.064000905 -0.007087098 0.14444117 -0.094611466 -0.1585933 -0.053225994 0.0050819064
0.03114281 0.14116839 0.20010394 -0.08234697 0.06450477 0.28640002 -0.01575214 0.13155518
-0.0028075979 -0.016762927 0.02850032 0.094905816 -0.023566434 0.023187688 -0.044033874 0.022211038
0.04911264 0.25896695 -0.14621577 -0.010417934 -0.0016875691 0.06304794 -0.07950307 0.08310246
-0.012842166 0.24003823 0.0093815485 0.025228824 -0.021683676 -0.009592178 0.11516651 0.055005316
-0.21494141 0.18762913 0.045478873 -0.08238109 0.22217107 0.24176565 -0.028564837 0.22968417
-0.046189677 -0.011675105 0.21613458 -0.06427974 -0.068224184 0.14950432 0.015023186 -0.044217616
0.045433633 0.11768077 -0.0677439 0.1856906 -0.16884664 -0.22479278 -0.16357397 0.11077579
-0.055850383 -0.15149699 -0.08487718 0.15461633 -0.005656438 0.05632448 -0.047407877 0.11324389
0.04611952 0.12536483 0.2865897 0.03262369 -0.12777668 -0.023664102 0.041152205 -0.041065253
-0.06788998 0.109371856 0.035834953 0.1304424 -0.049435407 0.14194834 -0.086298674 -0.015334177
-0.08101167 0.008827202 -0.06331424 0.08153038 0.05203514 0.11089969 0.20588796 0.037556775
-0.04145923 0.12387921 0.051691845 -0.003138788 0.092485294 -0.1391275 0.05144841 0.042827774
0.03639631 0.051382523 -0.048720717 0.07916895 0.15365213 -0.10526426 0.15376815 -0.081936
0.08899261 0.12770763 0.2633472 -0.020299265 -0.10800192 0.17750819 -0.08380426 0.0067653134
0.08578286 -0.30637085 0.120744504 0.23864676 -0.1614836 0.028542962 0.0035188738 0.08636765
0.23536356 -0.057730876 0.11320611 0.024028363 0.4736283 0.0059078564 0.055844158 0.10572763
-0.072078496 -0.04984941 0.050328147 0.14777619 -0.008263809 -0.08962901 -0.032634567 0.048417058
0.17395228 0.232083 0.27810934 0.026953403 -0.04761105 -0.074014895 0.16049977 -0.021387802
0.06311145 0.03517895 0.089695565 0.14162375 0.15977459 -0.061312642 -0.10852994 0.037584692
0.16176145 -0.09508694 0.05273691 -0.0489342 -0.18569638 -0.028336989 -0.04818037 -0.012071828
0.018683236 -0.08035219 0.09103194 -0.07737557 0.23435579 -0.058174826 -0.12611721 -0.052368775
0.12716337 -0.010998802 0.19939773 0.020295775 0.22418611 -0.0012900084 -0.072722524 -0.16017458
-0.20936795 0.22885516 0.03586739 0.11724589 -0.006099765 -0.04173101 0.1913637 -0.06407771
-0.044241652 -0.07675892 -0.02653036 -0.024634479 0.12598377 -0.14765227 0.21112002 0.0754436
-0.1046599 0.06279496 -0.16809338 -0.08180077 -0.02712638 0.032275025 -0.030527903 0.06281765
0.06251839 0.039459247 0.08803476 -0.028186973 0.043701388 -0.12486441 0.230215 -0.1454003
0.0010244792 0.16637133 -0.15558569 0.040730886 -0.1744091 0.034061573 0.10834267 0.10381085
-0.096043855 0.10674163 -0.018494507 -0.05616771 -0.15878016 0.14595403 -0.08466863 0.04858358
0.2631932 -0.09109897 -0.060504526 0.06929092 -0.043125696 0.027121207 0.08009169 0.034336794
-0.013651558 0.182076 0.07543402 0.007720806 0.11625715 0.030087225 -0.07771777 -0.104885705
-0.15158737 -0.025289861 -0.09609657 0.06845732 0.019578334 0.12855394 -0.064375095 0.12808399

running_var f4 [300]
00000000: 5f91 833a db54 823a b084 863a 5572 903a
00000010: 2999 8e3a 1201 a13a b001 863a c480 623a
00000020: b345 8d3a da36 723a 6b93 593a 6f8c a83a
00000030: 5be0 423a 106f 933a e046 693a 04bb 973a
00000040: 3569 b63a 3142 d83a 6431 9a3a 3532 423a
00000050: 955d 7c3a 84b9 9f3a 5609 a93a 328f 603a
00000060: cacd aa3a 432f 8c3a e375 883a 340e 413a
00000070: 2f9d db3a 6dca 803a e758 803a 402c 933a
00000080: e98a 6a3a f539 653a 1d3d fe3a 906b a43a
00000090: ef5e 5d3a 0ece 8b3a fd64 643a 177c 5f3a
000000a0: ea32 c93a 70cd 233a b290 ad3a 1a60 db3a
000000b0: d5b2 e23a d0fb 803a 2996 8a3a d56d 453a
000000c0: 38d4 653a b999 673a b50a ab3a b763 e63a
000000d0: 2089 6f3a f937 843a 1978 ca3a cd0a 8a3a
000000e0: e38c 823a 5012 633a ee0e 843a 9f16 b93a
000000f0: 6753 673a 78ec a43a 07e3 1e3b 801e 753a
00000100: e1d9 563a 43a7 9d3a fd57 503a 21d9 463a
00000110: a118 913a 2a23 693a 910a a73a 4248 883a
00000120: b5ab 493a e900 813a cc5d ad3a ca6f 683a
00000130: b08e 2e3a bf94 943a 53f3 9b3a c00e 2c3a
00000140: 4e07 4b3a 1a95 573a 61a1 c43a a771 8b3a
00000150: c607 833a 4817 5b3a 8eaa 813a 695a 8a3a
00000160: 332b b33a f6d6 893a 48b5 243b 84a3 913a
00000170: f243 5e3a 5253 be3a dca0 073b 62c7 873a
00000180: be35 9f3a c1bd 943a 8d4f 6e3a 060f 573a
00000190: 9c00 7a3a 079a 4a3a 473e 7c3a bf51 a33a
000001a0: 8b14 5a3a ab82 c93a fe3f 9b3a 83da 983a
000001b0: c47f 093b 2b7c 883a 437b 673a 8982 9a3a
000001c0: 82cd 723a 7712 833a e577 9a3a 7c6b 973a
000001d0: 5aee a43a 0e0d b03a d099 503a 1f19 823a
000001e0: 7986 a33a e074 233b 35c9 7e3a 0f90 5c3a
000001f0: de8c a23a a279 213a 921c 7b3a 24a9 843a
00000200: a72a 7f3a 1bed a23a ff80 803a 6547 5e3a
00000210: a1fb 983a daca ac3a d4ab 743a e7e9 b23a
00000220: decc 363a 4bcf 8a3a 01d6 773a 4879 563a
00000230: d639 843a 5cf4 263a f6a8 2a3a 6fc5 ae3a
00000240: 233f 083b f6f9 983a be41 513a dcdb 3c3a
00000250: 44a7 5e3a d3d7 f23a 0608 803a 15b0 6d3a
00000260: 2ac5 583a b741 a73a ff1b d33a 91e4 513a
00000270: 3f38 963a c821 9d39 6a36 743a 79b4 923a
00000280: 3313 9b3a c324 fd3a ca16 903a 07cf ad3a
00000290: a020 753a ec9c cb3a 22cd 8b3a cb51 f33a
000002a0: fae5 8d3a f748 283a 4c1d 833a ebf6 583a
000002b0: e5f5 8a3a 2200 733a 0c56 af3a 528d 5e3a
000002c0: 0cde 993a e44a 843a b76f c53a f726 7e3a
000002d0: 2b40 8c3a 71bf 603a b2b9 853a fa5b ea3a
000002e0: dfe5 be3a ab10 8b3a ea3d 483a 6cab 663a
000002f0: 830b 8d3a 47c1 ca3a 9698 863a 4fd5 233a
00000300: 7303 933a d8ad b13a 6e69 863a 0de8 583a
00000310: 7d47 423a c729 663a afd2 aa3a 1b7f 803a
00000320: 2c8d 6f3a fb8d 493a cfa4 ff3a a245 c13a
00000330: c9d5 7f3a c25f 4d3a 2491 a93a 3973 263a
00000340: 8f61 433a 536d 3b3a 459a 3b3a 6d98 803a
00000350: 163d 5a3a 2667 b23a df96 bd3a eca2 663a
00000360: a1a8 883a 6061 8e3a 735a 733a 9b9d 483a
00000370: 3e0b 543a 43ce 703a 43be 433a efd2 863a
00000380: 145c 853a fa84 533a 6e6b 593a fe4c 333a
00000390: eabd 593a 12b1 a13a 064d a83a 0a28 4f3a
000003a0: 508a 5b3a 7da9 6c3a 03de 1e3a ed7b 543a
000003b0: 667a 933a 2758 503a 8e57 5b3a c5f0 613a
000003c0: f1f1 883a 257d 653a 2030 503a 0309 403a
000003d0: 178f 0f3b 3680 963a 672e 7c3a 429e ce3a
000003e0: fd4a 4f3a cea8 573a 660f 583a 214e 9a3a
000003f0: 90e3 973a 0bec 603a 7423 8c3a e7d4 973a
0.0010037831 0.0009943502 0.0010262933 0.0011020402 0.0010879386 0.0012283644 0.0010223892 0.00086404034
0.0010778218 0.0009239741 0.000829986 0.0012859235 0.0007433944 0.0011248309 0.0008898806 0.0011576121
0.0013916852 0.0016499219 0.0011763987 0.0007407994 0.0009626982 0.0012186025 0.0012896459 0.00085662596
0.0013031301 0.0010695237 0.001041111 0.0007364482 0.0016755218 0.0009825953 0.000979212 0.0011228397
0.0008947091 0.0008744293 0.0019396875 0.0012544263 0.0008444627 0.0010666267 0.0008712558 0.0008525266
0.0015350257 0.0006248569 0.0013241975 0.0016737015 0.0017295728 0.0009840671 0.0010573316 0.000753132
0.000876728 0.0008834857 0.0013049456 0.0017577325 0.00091375597 0.0010087482 0.0015447169 0.0010531783
0.00099602 0.00086620916 0.001007525 0.0014121121 0.00088243786 0.001258268 0.0024244206 0.0009350553
0.00081959186 0.0012027997 0.00079476816 0.00075854553 0.0011069962 0.00088934845 0.0012744238 0.0010397511
0.0007693128 0.000984219 0.0013226806 0.00088667555 0.00066588353 0.0011335834 0.0011898078 0.0006563477
0.0007744924 0.0008223817 0.0015001708 0.001063873 0.0009996824 0.0008357656 0.0009892748 0.0010555509
0.001366949 0.0010516334 0.0025132466 0.0011111354 0.00084787526 0.0014520681 0.0020695245 0.0010359103
0.0012146754 0.0011348055 0.00090908335 0.0008203838 0.0009536834 0.00077286403 0.0009622317 0.0012460275
0.0008319101 0.0015374025 0.0011844633 0.0011661801 0.0020980695 0.0010412982 0.0008830318 0.001178817
0.00092621904 0.001000001 0.0011784999 0.0011552419 0.0012583241 0.0013431625 0.000795749 0.00099257
0.0012475989 0.002494149 0.0009719313 0.00084138004 0.0012401601 0.00061597873 0.00095791474 0.0010121209
0.0009733834 0.0012430282 0.0009804069 0.00084792665 0.0011671671 0.0013183013 0.0009333466 0.0013650031
0.00069732766 0.0010590343 0.00094541913 0.00081815245 0.0010088037 0.000636881 0.00065101625 0.0013333986
0.0020789586 0.0011671174 0.00079825136 0.00072043925 0.00084935525 0.0018527455 0.0009768016 0.0009067071
0.0008269126 0.0012760673 0.0016106366 0.00080067763 0.0011460854 0.00029970543 0.00093159697 0.0011192701
0.0011831283 0.0019313324 0.001099312 0.0013260551 0.000935087 0.0015534437 0.0010665993 0.0018563805
0.0010825985 0.0006419564 0.0010003238 0.000827654 0.0010601847 0.0009269734 0.0013377084 0.00084896863
0.0011739149 0.001009312 0.0015063201 0.0009695137 0.0010700276 0.0008573449 0.0010202436 0.0017880194
0.0014564357 0.0010609826 0.00076386204 0.00087993476 0.0010760877 0.0015468978 0.0010268863 0.0006249742
0.0011216238 0.0013555838 0.0010254809 0.00082743244 0.0007411165 0.0008780029 0.0013032759 0.0009803505
0.0009138163 0.0007688698 0.0019504073 0.0014745484 0.00097593345 0.00078343984 0.0012936932 0.0006349567
0.0007453197 0.00071497745 0.0007156472 0.0009811051 0.00083251426 0.0013611063 0.0014464519 0.0008798081
0.0010426232 0.001086276 0.00092831923 0.00076528796 0.00080888334 0.0009186009 0.0007467011 0.0010286252
0.0010174536 0.0008068826 0.00082939013 0.0006839781 0.00083061925 0.0012336096 0.0012840338 0.00079023896
0.0008374797 0.0009027941 0.0006060304 0.00081056246 0.0011251688 0.0007947706 0.00083672337 0.00086189463
0.0010448081 0.0008754305 0.00079417415 0.00073255616 0.0021905357 0.0011482302 0.00096199516 0.0015763717
0.00079075975 0.0008226753 0.00082420406 0.0011772552 0.0011588205 0.0008580095 0.0010691718 0.0011583836

weight f4 [1, 300]
00000000: b84b 91bd 8844 cfbd 5c66 6bbd 061d 963d
00000010: 4ef7 b0bd 1c8a be3d 064f ce3d 5ae2 e4bd
00000020: e9b8 03be 07e3 923d 6f2f 3abd 0707 913d
00000030: b6b0 92bd 354e e23d 589e 4f3d 1227 5a3d
00000040: 361c e83d 6d83 fa3c dffd e43d 8d7c b93d
00000050: 7fec 56bd 7c5f 1f3e eb34 d03d 11c8 e8bc
00000060: a241 4a3d 71e7 3ebd 0652 e4bd 06a3 633d
00000070: bd9e 74bd fc1f 813d 3791 b33d 06ec 19bd
00000080: bcb5 eebd 52c6 163d 1640 093e a789 9d3d
00000090: ba46 1cbe 95c6 48bd 39d6 983d f795 cbbd
000000a0: 9343 9d3d 528f b0bd 68cd 7a3d 4686 b73d
000000b0: cd31 a63d e928 773d 1dd2 3b3d 3c16 bc3d
000000c0: 0f95 10be 424d 793d ad0b 1fbe 3f5b 35bd
000000d0: 71a7 9c3d 3afe f03d 6e9c 083e 6ea4 c7bd
000000e0: 9c92 8dbd da6f bd3d 8f27 b93d 5e5f 7d3d
000000f0: 44b5 92bd ce90 8fbd 5030 a73d 0964 d53d
00000100: 2897 0d3e 626d 87bd 155e 05be e471 77bd
00000110: 1ca7 053e ac38 8fbd 3ecc 12bd d57e 4c3d
00000120: b408 99bd f17d 843d 09b5 643d c5d0 943d
00000130: 52a1 a3bd 3130 99bd 7bf6 003e 65b0 34bd
00000140: 723e a1bd 3855 9bbd 43e9 963d f283 b23d
00000150: a984 833d 580e a4bd 7ab9 2d3d 52ab e7bd
00000160: 2e6e 7c3d 3fbf 9b3d c4e4 fa3d f34f 773d
00000170: 1e52 0dbe 0d6f 673d b792 dbbd 03e6 843d
00000180: 3c2c e33d 6887 b73d a641 6bbd a3eb efbd
00000190: 5da9 8c3d 0c9c 6f3d b1f1 9dbd 40d1 fb3d
000001a0: 3b7f 66bd c4d0 943d 3af3 07be 5210 babd
000001b0: 205f 3abc b61f 27bb 803f 823d 9692 a7bd
000001c0: c1ea 873d cb6a 953d ce08 d83d 9b7e 04be
000001d0: 5259 d6bd 1e88 243d 48ff 95bd cdae 94bd
000001e0: 4486 4abd f2ea b63d 845d 5d3d b698 e1bd
000001f0: a750 aa3d 9e33 94bd 1fef c13d 5054 033e
00000200: 6f3f acbd 2075 9a3d e0f5 833d dcfa b7bd
00000210: 873a d53d c5d5 efbd 3b62 b4bd ca01 d53d
00000220: 8bce b3bd 3c8e dc3d f113 adbd 5a33 8cbd
00000230: 9531 d1bd 951e a3bd 0871 b6bd 83fa 473d
00000240: 29c6 c93d ad68 043e 981c 8ebd 3394 8f3d
00000250: 99f3 9bbd aa0a f5bd 6c31 78bd d35c e63d
00000260: 14ac 84bd cfa0 823d 1199 083e 9e4b c6bd
00000270: 3b68 e33d f13f acba ec2b c1bd b9c1 bfbd
00000280: f676 413d ee9f 813d 0e71 2c3d 62f6 b63d
00000290: 8fc9 b3bd 6964 143e d252 833d cce8 d53d
000002a0: a64c 833d f384 77bd 2c69 a83d 371f 85bd
000002b0: 6a3f 8e3d c240 fdbd 4b5b b43d fae4 bcbd
000002c0: 23f2 c3bd 0380 86bd 951a c43d 985e 3ebd
000002d0: 1332 3fbd 58fe 843d eed6 74bd 51da 703c
000002e0: 8db8 b63d 7268 b33d 328b ccbd 6983 00be
000002f0: 7340 bd3d 8082 143d df86 ccbd 15dc bcbd
00000300: 94c8 aebd 046d 6d3d 80e1 6d3d 66db 8dbd
00000310: 05ea 8cbd 8b94 d83d de49 9d3d 321b 243d
00000320: dee2 76bd 5e15 a03d fe9d c83d bccd 9fbd
00000330: ef99 933d 2b97 88bd b786 c13d fbbd b5bd
00000340: a782 0cbe 57bd 013e f065 68bd 6352 86bd
00000350: 9d06 a9bd 3ba9 773d d1a9 abbd 5f42 b93d
00000360: 66b0 95bd b200 cf3d a69b 853d 897d 8abd
00000370: 3e65 8cbd 9958 c8bd d93a 8d3d f435 e7bd
00000380: f786 073e 23e2 abbd 7db5 a6bd 6176 4abd
00000390: 58aa 4a3d 8f70 cabd 61d7 4fbd e95f 78bd
000003a0: 4e4f d5bd 3766 02be 776e 8fbd 5ed4 cfbd
000003b0: 50bc 8bbd 1485 23be 53d6 64bd 5ab8 77bd
000003c0: ea06 dcbd 1f2b a93d 1f05 5fbd 87ed babd
000003d0: adb9 713d edd4 ed3d 75b3 fe3d 14d1 8d3d
000003e0: 6ddd a5bd e36b ecbc 8cea f33d 81fb a43d
000003f0: 15c2 913d a48e 923d 39b4 82bd 0138 913d
-0.0709452 -0.10120493 -0.057470664 0.073297545 -0.086409196 0.09303686 0.10073666 -0.11175986
-0.12863506 0.07172208 -0.045455392 0.070814185 -0.07162611 0.11050073 0.050688118 0.053259917
0.11333506 0.030580247 0.111812346 0.09056959 -0.052471634 0.15563768 0.10166343 -0.028415712
0.049379 -0.04660744 -0.11148457 0.055575393 -0.059721697 0.06304929 0.08767932 -0.037578605
-0.11655757 0.036810227 0.13403353 0.07692271 -0.15261355 -0.049017508 0.07462735 -0.09940713
0.076789044 -0.08621086 0.061231047 0.089611575 0.081149675 0.06034175 0.045854677 0.09183928
-0.14119361 0.060864694 -0.15531798 -0.044276472 0.076491244 0.1176724 0.13340923 -0.09748159
-0.06912729 0.092498496 0.09040748 0.061858527 -0.0716348 -0.07010041 0.08163512 0.10419471
0.13827193 -0.0661266 -0.1302417 -0.06041135 0.13052028 -0.06993231 -0.03583931 0.049925644
-0.07472363 0.06469334 0.05583671 0.07266382 -0.07989754 -0.07479895 0.12594025 -0.044113535
-0.078732386 -0.075846136 0.0736871 0.08716573 0.06421787 -0.08010548 0.042413212 -0.11311974
0.061628513 0.07604837 0.12250665 0.06037898 -0.13800856 0.05650239 -0.10721343 0.06489184
0.110924214 0.089613736 -0.057435654 -0.11714866 0.06868241 0.058498427 -0.077121146 0.12295771
-0.05627368 0.072663814 -0.13276377 -0.09085144 -0.011375219 -0.002550108 0.06359768 -0.08182256
0.06636573 0.0729576 0.10548554 -0.12938921 -0.10466255 0.040168874 -0.07324082 -0.07259903
-0.049444452 0.08931531 0.05404426 -0.110154554 0.083161645 -0.07236408 0.09469437 0.12825131
-0.084105365 0.07541871 0.06443381 -0.089833945 0.10411554 -0.11710695 -0.088077985 0.10400732
-0.08779629 0.107693166 -0.08451069 -0.06845732 -0.10214535 -0.079648174 -0.08908278 0.04882289
0.09852249 0.12930556 -0.069390476 0.07010689 -0.07614822 -0.11964925 -0.060594007 0.112481736
-0.06478134 0.06378328 0.1333964 -0.096823916 0.11103865 -0.0013141615 -0.094322056 -0.093631215
0.04723259 0.06329332 0.042100005 0.089337125 -0.087786786 0.14491428 0.06412281 0.10444793
0.06411104 -0.060429525 0.08223185 -0.065000944 0.06945689 -0.12365867 0.08806475 -0.09223361
-0.09567668 -0.06567385 0.095753826 -0.04647693 -0.046678614 0.06493825 -0.059775285 0.014700488
0.08921919 0.08760156 -0.09987487 -0.12550129 0.09240808 0.036257267 -0.09986662 -0.09221665
-0.08534351 0.057965294 0.05807638 -0.069266126 -0.06880573 0.10575207 0.07680105 0.040064998
-0.06027495 0.078165755 0.097957596 -0.078029126 0.07207095 -0.06669458 0.09449523 -0.088741265
-0.13721715 0.12669884 -0.05673784 -0.06558683 -0.082532145 0.060464125 -0.08381999 0.090458624
-0.07309036 0.101075545 0.06523828 -0.06762225 -0.06855248 -0.09782524 0.0689599 -0.112895876
0.13235079 -0.083927415 -0.08140085 -0.0494293 0.04947886 -0.0988475 -0.05074251 -0.060638342
-0.10415517 -0.12734304 -0.07003491 -0.10147928 -0.06823027 -0.15968734 -0.055868458 -0.060478546
-0.10743506 0.08260178 -0.054448243 -0.09127336 0.059014965 0.11612878 0.124365725 0.06924644
-0.08098874 -0.028860038 0.11909971 0.08055783 0.07117096 0.07156113 -0.06382031 0.0709076
